data.pth (torch, 15959 bytes, 6 tensors)

l1.weight f4 [8, 232]
000000 5b 0e a5 bf 55 de 20 3f 2c 37 02 3e 87 23 24 3e
       -1.2895006 0.6283925 0.12716359 0.16029178
000010 2d ed e9 bd f1 cb 13 3f 99 c9 38 40 cf 27 39 40
       -0.11422191 0.57733065 2.8873045 2.8930547
000020 ff 57 f4 3f 95 5e b4 3f 97 a0 60 bf a0 10 53 bf
       1.9089354 1.4091364 -0.8774504 -0.8244724
000030 1e 69 33 3e 05 50 32 3f 3a cb 25 bf aa d4 c9 3d
       0.17520568 0.6965335 -0.64763224 0.098550156
000040 dd 7a d5 be 8d 29 88 3f c6 a5 c5 3e f1 fe f7 3f
       -0.416953 1.063768 0.38603038 1.9374677
000050 fc 68 15 bf 4b 60 80 be d9 45 08 bd f7 c0 9f 3e
       -0.5836332 -0.25073466 -0.033269737 0.31201908
000060 cd 5a 1a 40 30 70 72 3b 2e 05 2b bf 83 e4 89 3e
       2.411792 0.0036993138 -0.6680478 0.26932153
000070 9f 6d ba be 68 ae 49 c0 77 5d 99 3e 34 24 89 bf
       -0.3641176 -3.15127 0.2995412 -1.0714173
000080 48 55 00 bf c8 ba 0c c0 92 7b 42 c0 6a a5 b1 be
       -0.5013013 -2.1989002 -3.0387921 -0.34696513
000090 ef 92 3b bf a3 fb 95 bf aa 8f b9 be ba 53 a6 3e
       -0.7327108 -1.1717418 -0.3624242 0.32485753
0000a0 8f 7f a9 bd e8 3e dc be d4 42 83 3e d5 f1 7c bf
       -0.08276283 -0.43016744 0.25636923 -0.98806506
0000b0 a3 86 a7 bf 49 4d 24 bf 3d 3a 33 bf cb 94 07 bf
       -1.3087963 -0.6418043 -0.7001074 -0.52961415
0000c0 18 30 30 40 68 7d 5d bd 7f 24 91 3e a5 66 0b 3e
       2.7529354 -0.054074675 0.28348157 0.13613375
0000d0 90 c4 82 bf 84 e8 17 be e2 04 c3 3d 1e 77 08 c0
       -1.0216236 -0.14834791 0.09522416 -2.1322703
0000e0 d1 f9 dc 3e 15 57 4c 40 e8 79 fa 3e ee 14 b2 3d
       0.43159345 3.192815 0.48921132 0.08695398
0000f0 ae bd 62 3f b6 4a 97 be 7f fc 33 3f ea 01 7b be
       0.8857068 -0.29549187 0.70307153 -0.24512449
000100 24 ca 31 c0 9f ce 83 be 64 4f 8d 3f ca 98 21 40
       -2.7779627 -0.25743577 1.1039853 2.5249505
000110 92 54 9d bc d8 3e 28 be 03 58 a1 3e b2 ee d2 be
       -0.019205365 -0.16430223 0.3151246 -0.41197735
000120 41 6b 3b c0 aa 65 f2 be ff f4 b4 3f b7 bf 24 bf
       -2.9284213 -0.4734319 1.4137267 -0.64355034
000130 80 5a 58 bf fd 3b aa 3e c9 a0 4c bf 4b 7d ae be
       -0.8451309 0.33248892 -0.7993284 -0.34079966
000140 e7 25 43 bf 05 31 83 3f 6c c7 95 bf 62 a0 39 bd
       -0.7622971 1.0249335 -1.1701484 -0.04531897
000150 48 5b d2 3e fa d5 bd bf d5 0d 4b 3f 6f 81 9b bf
       0.41085267 -1.4830925 0.7931798 -1.2148875
000160 68 10 4e bf 15 82 93 3f 7c d6 72 be ed 4e 10 3f
       -0.80493784 1.1524073 -0.23714632 0.5637043
000170 2a dc 7e 3e 79 03 54 bf 19 84 14 bf 3c 74 f1 bd
       0.24888673 -0.828178 -0.58014065 -0.11789748
000180 36 65 fe be 45 72 91 be 01 76 47 3e a4 48 9a bf
       -0.49686593 -0.28407493 0.19478609 -1.2053418
000190 bd 82 88 3e 02 72 fd bf fb 41 a4 3e c0 03 fe be
       0.26662245 -1.9800417 0.3208159 -0.49612236
0001a0 ac b7 d4 be 6c ee fd be c2 8b b6 bf 07 9a b5 be
       -0.4154638 -0.49595964 -1.4261401 -0.35469076
0001b0 49 68 ef bf ce 22 a5 3d 34 6c 21 3f e8 80 07 be
       -1.87037 0.08063279 0.6305573 -0.13232768
0001c0 b2 f6 1b 3f 99 05 9d 3f 89 2a 3d 3e e9 d4 17 3f
       0.609233 1.2267333 0.18473257 0.5930925
0001d0 29 75 ef bd 09 33 9f bf 79 59 75 3e 75 ba 44 be
       -0.116922684 -1.243745 0.23959912 -0.19211753
0001e0 46 f8 4a 3e d3 19 cb 3f 57 55 9d 3f d1 45 a6 bf
       0.19821271 1.5867256 1.2291669 -1.2990056
0001f0 37 47 f1 3f 8f 29 a4 3f 00 40 05 c0 55 b7 dc be
       1.8849858 1.2825183 -2.0820312 -0.4310862
000200 cd eb 3a bf 00 b6 9c be 58 d4 91 bf 9b cc f5 3e
       -0.73016053 -0.30607605 -1.1392927 0.48007664
000210 4d fd ab 3e d0 92 6f 40 a0 1a 3a 3f dd ed af be
       0.3359169 3.7433357 0.72696877 -0.34361163
000220 22 e9 37 3f 9a ba 5a bf e8 53 ff 3e d2 a7 54 bf
       0.7184011 -0.8544098 0.49868703 -0.83068573
000230 37 30 5d bf f8 09 44 3e 96 55 12 bf d9 82 b3 3f
       -0.86401695 0.19144428 -0.57161844 1.4024307
000240 81 68 a5 3f 77 e7 25 3e 2e 14 86 bf 14 eb 43 3f
       1.2922517 0.16201578 -1.0474908 0.76530576
000250 af 2d 73 3f 63 eb 57 bf 64 53 3c bd cb f1 f6 be
       0.9499158 -0.84343547 -0.045977965 -0.48231348
000260 26 75 98 3f 78 2e 0f be 41 09 9a 3e 4e 34 45 bf
       1.1910751 -0.1398257 0.30085185 -0.77032936
000270 e2 e0 5e 40 df 43 a6 bc d3 0a de be 88 05 6b bf
       3.4824758 -0.020296035 -0.43367633 -0.91805315
000280 2d 3d 88 3f 02 67 21 3e cf 77 8d bd 92 37 22 bf
       1.0643669 0.1576195 -0.06907617 -0.63366044
000290 19 b2 dc 3f ec e7 92 3e 73 1d 46 bf 07 73 d9 3c
       1.7241851 0.28692567 -0.77388686 0.026544107
0002a0 b4 62 c6 3e b1 8b 52 bf 9a 2e 23 40 4b aa b0 bf
       0.3874718 -0.822444 2.5497193 -1.3801969
0002b0 b5 6f 88 3f 90 f4 a0 bf 5d ff 24 bf 42 60 9e bf
       1.065909 -1.2574635 -0.64452153 -1.2373126
0002c0 b8 69 23 3b 63 3a fc bd 71 b5 ad 3d f8 b3 82 3f
       0.002493484 -0.12315824 0.08481873 1.0211172
0002d0 90 be 01 bf 2b 69 08 c0 ea 62 25 bc 18 8b 05 3f
       -0.506814 -2.131419 -0.010094384 0.52165365
0002e0 d0 79 2b 3e 12 ed 05 3f 5a cb a4 3f a6 51 1e 40
       0.16745687 0.52314866 1.2874558 2.4737334
0002f0 44 a9 87 bf e9 4a 18 bf b5 f8 4a bf 82 51 73 3f
       -1.0598531 -0.59489304 -0.79285747 0.95046246
000300 d1 b2 7b 3e 34 83 08 bf 6f 75 5a bf 00 1f 84 bf
       0.24579932 -0.533252 -0.8533544 -1.032196
000310 0c ca 3a bf 78 b0 bf bd f8 ca b7 bf 6d 7e 2a be
       -0.7296455 -0.093598306 -1.4358816 -0.1664979
000320 f6 b9 87 bd b1 5e 07 3f 23 ed 3c 3f 26 52 ca 3e
       -0.06627266 0.5287886 0.7379934 0.395158
000330 c3 36 6b bd 10 bc b9 be 71 db 51 bf a2 a6 99 3e
       -0.05742527 -0.36276293 -0.81975466 0.30009943
000340 4f ff 80 3f 85 3d 9a 3e 44 b2 69 3f 8d cb fd be
       1.0077914 0.3012506 0.91287637 -0.4956936
000350 0b 24 f5 3e 24 d6 08 c0 24 c5 93 be 3f ac f0 3e
       0.4787906 -2.13807 -0.28861344 0.47006413
000360 ca 79 1d 40 df 78 40 40 c8 38 12 bf 82 9c df 3c
       2.4605584 3.0073774 -0.5711789 0.027296308
000370 54 21 ae 3e 4d 63 e6 3e 06 35 89 bf f5 3f c5 bc
       0.34009802 0.44997635 -1.0719306 -0.024078349
000380 30 1d 4a 3f c3 6c 1d 3f 4b 50 0c bd 05 32 b8 3f
       0.78950787 0.6149408 -0.03425626 1.4390265
000390 10 f8 20 3d 1b c8 4b bf 54 ab f9 3e ae b9 2d bf
       0.03929907 -0.7960221 0.48763525 -0.6786145
0003a0 5c b8 47 3f 07 f9 f8 3c 10 87 48 3f 9e a8 4c 3f
       0.78015685 0.030392183 0.7833109 0.7994479
0003b0 62 f3 49 3f 37 f0 17 3f 64 b0 cd 3f 80 01 02 40
       0.78887 0.59350914 1.6069455 2.0313416
0003c0 d6 d6 2c 40 a2 36 9a 40 f0 0f 73 40 c9 01 48 be
       2.7006125 4.819169 3.7978477 -0.19531931
0003d0 f9 0b 70 3f 53 a4 97 3f 75 f0 75 3f a1 54 b1 3f
       0.9376827 1.1847023 0.96070033 1.3853952
0003e0 43 72 92 3f 23 6e f8 3f e0 75 3e 40 23 68 ae 40
       1.144112 1.9408611 2.9759445 5.450212
0003f0 ff 2b 47 3e db 81 c6 3f ef 75 27 3f ce 0b 8c 3f
       0.19450377 1.5508379 0.6541433 1.0941103

l1.bias f4 [8]
000000 81 a7 6e 3e 78 a2 40 3e eb 18 42 3e db 42 cc 3d
       0.23306085 0.18811977 0.18954818 0.09973689
000010 ee 04 60 3d 8e 4c 98 3f 4f d8 ab 3f d4 54 9c 3f
       0.0546922 1.1898363 1.3425387 1.2213387

l2.weight f4 [8, 8]
000000 cc a2 26 40 fa de 23 3f 46 17 5a 3f 7c 58 0f bf
       2.6036863 0.6401211 0.8519176 -0.5599439
000010 8b 9c 76 bf ff c9 31 3e cb 28 43 3f 7c f4 0a bf
       -0.96332616 0.17362212 0.7623412 -0.54279304
000020 80 98 2f be 7c 31 59 3d af d2 dd 3c 23 8a 2f be
       -0.17148018 0.053025708 0.027078 -0.17142539
000030 1a 23 3b bd ab 4e 5a 3d 2e 1f 0f be 69 5c a0 be
       -0.045687772 0.05329768 -0.13976738 -0.31320503
000040 84 fe 6f bf 9b 7b 49 40 52 88 a2 bf 56 35 85 3f
       -0.93747735 3.1481693 -1.2697852 1.0406902
000050 47 ff 26 bf 25 7d 4f 40 af 3f 84 be ce 12 de be
       -0.6523327 3.2420132 -0.25829837 -0.43373722
000060 5d d3 bb bf 48 02 44 3f e2 1a a2 3f f0 ef df 3f
       -1.4673878 0.7656598 1.2664454 1.7495098
000070 18 35 b3 bf e9 e5 3f bf d8 22 84 3f a5 4c fc 3d
       -1.4000578 -0.7496019 1.0323133 0.12319306
000080 33 79 6d 3f 77 70 5f bf 9d 1f 9c be a3 17 a6 bf
       0.9276306 -0.8728098 -0.3049287 -1.2975963
000090 0f 9a 71 bf 42 aa d3 3f b5 b7 14 40 48 51 69 40
       -0.943757 1.6536334 2.3237126 3.645586
0000a0 dd cb 15 be 5c 2c 1b 40 68 bd f1 3f d3 6a c5 3d
       -0.14628549 2.4245825 1.8885927 0.09639516
0000b0 04 93 72 bf c9 50 35 bd 64 1f 52 bf 8b 4f 75 40
       -0.9475558 -0.044266496 -0.8207915 3.83298
0000c0 7c 5d 08 3e 77 be 6b be c3 a8 ab 3f 26 98 98 3f
       0.13316911 -0.23021875 1.3410877 1.1921432
0000d0 13 df 9b 3f 5f b6 01 bf a7 0e 3e bc be ed 52 40
       1.2177452 -0.506689 -0.011600173 3.2957606
0000e0 5d 0c 84 bf 77 15 51 bf 3c e5 1b 3f 74 15 a4 3e
       -1.0316273 -0.8167338 0.6089666 0.32047617
0000f0 c1 b3 70 be 0c b7 bf 3f 88 0c bd 3f eb 23 73 3a
       -0.2350607 1.4977736 1.4769449 0.00092750665

l2.bias f4 [8]
000000 ae 41 92 be 27 68 5b be 93 7b ec 3e ce f7 d9 3d
       -0.28565735 -0.2142645 0.4618803 0.10642968
000010 4f 30 0b 3f fb 10 36 bf 36 e1 a6 bf ff e2 1b 3d
       0.5437059 -0.7111966 -1.3037479 0.038058277

l3.weight f4 [58, 8]
000000 94 16 1a c0 5d 19 c2 3c e9 2a 14 3f 01 36 81 c0
       -2.407628 0.023693735 0.57877976 -4.0378423
000010 c0 dc 69 be 6e aa a1 bf 18 3c eb bf 0e 65 d1 be
       -0.22838116 -1.2630136 -1.8377714 -0.4089741
000020 64 44 22 c1 24 08 8d bd 6c be 87 bf a6 24 33 c0
       -10.141697 -0.06886318 -1.0604987 -2.7991118
000030 35 a2 e0 3e 8a 93 95 bf 3f a0 e0 bf f4 f6 ce 3e
       0.43873754 -1.168565 -1.7548903 0.40422785
000040 b4 49 1d c0 aa ca f2 3d 24 c3 85 3f d1 67 55 c0
       -2.4576235 0.11855061 1.0450177 -3.3344615
000050 70 ec d4 3d 4f 98 cd bc f8 97 14 c0 98 d5 a5 c0
       0.103966594 -0.02509704 -2.3217754 -5.1823235
000060 77 d8 1d 3e 00 7e ef bd 38 4f c3 3e af f5 fd bf
       0.15414606 -0.116939545 0.38146377 -1.9840602
000070 47 d0 98 3e ca 88 ee be d9 bd 89 c0 5a d1 0e bf
       0.29846403 -0.46588737 -4.304425 -0.55788195
000080 b3 8d a9 3e 2d 5c 9b be 86 20 75 3d 1f ba 17 c0
       0.3311592 -0.30343762 0.05984547 -2.370735
000090 75 96 a1 bf 34 21 3a 3f 12 45 1d c0 3c 94 86 c0
       -1.2624041 0.72706914 -2.4573407 -4.205595
0000a0 0b 31 90 3f c5 27 dc bd a1 e1 93 3f be a0 b1 c0
       1.1264967 -0.10749773 1.1553231 -5.550872
0000b0 ec 8b 5e 3e 46 9b e4 bf 47 bf 3a c0 50 73 09 3f
       0.21733063 -1.7859886 -2.9179246 0.5369158
0000c0 b3 bf f9 3e 21 a6 13 bd d7 b2 af bf 19 79 6b bf
       0.48779067 -0.036047105 -1.3726453 -0.91981655
0000d0 7f be 7a 3e f6 77 a5 be 1b ae 28 c0 77 96 56 c0
       0.24486731 -0.32318085 -2.6356266 -3.3529336
0000e0 0c 81 aa 3f f9 05 3e 3e 2d ba 77 c0 fb b0 e3 be
       1.3320632 0.18556966 -3.8707383 -0.44470963
0000f0 f5 22 0b 3f 36 b4 02 c0 28 11 2f c0 ef 93 93 3f
       0.54350215 -2.0422492 -2.7354221 1.1529521
000100 28 54 83 40 a4 36 88 be 9d 43 0c 3f ad 70 1f c0
       4.104023 -0.26604187 0.5479067 -2.4912522
000110 45 a8 b3 3e 3e b6 3f c0 43 c4 78 c0 d7 83 c5 3f
       0.35089317 -2.9954982 -3.8869789 1.5430859
000120 d9 ce e2 c0 06 de 88 3e 02 75 9a 3f 8f 69 f3 bf
       -7.08775 0.2673189 1.2066958 -1.9016589
000130 2f df af bf 17 98 80 bf 65 6f 1d c0 9b b4 1f 3f
       -1.3739985 -1.0046414 -2.459924 0.6238496
000140 b0 e6 ed 3f a7 11 40 3e f5 c3 e2 bf 6f 93 1e c1
       1.8586025 0.18756734 -1.7716051 -9.910995
000150 84 7b 20 40 dd 04 0b c0 0f fb 69 c0 6b 35 e5 be
       2.5075388 -2.1721718 -3.6559484 -0.44767317
000160 aa 9d b7 3e 66 82 81 3e e2 97 06 c0 0f a8 3d c0
       0.35862476 0.252948 -2.1030202 -2.9633825
000170 8c 1b 2e 3f bf c5 8d 3d f6 cc 13 c0 fe 88 6c c0
       0.68010783 0.06922483 -2.3093848 -3.6958613
000180 ca ca df bf 08 d0 1e 3e 43 1e 19 3f 2c 91 45 c0
       -1.7483761 0.15509045 0.598118 -3.0869856
000190 91 96 0c bf 6b a6 c2 3e 1b 2f 5d c0 ea f6 84 bf
       -0.54917246 0.38017592 -3.456 -1.0387852
0001a0 09 bd 41 bf 80 b7 0e 3b 23 97 8e bf 63 b2 bf be
       -0.7567907 0.0021776855 -1.1139873 -0.37440786
0001b0 69 c2 2d c0 2b 6b cf 3f 27 c8 14 c0 7d 0b ad c0
       -2.7149909 1.620458 -2.3247163 -5.4076524
0001c0 fa 9d 82 3f 37 5e 41 3e 38 9e 0d c0 9a fe 0b 3f
       1.0204461 0.18883596 -2.212782 0.54685366
0001d0 1a 37 43 bf af 84 91 c0 c5 78 c4 3e de 74 b2 bd
       -0.76255953 -4.5474467 0.3837339 -0.08713697
0001e0 9e 8c a4 c0 b5 3d a3 be 13 5c fc be cd 1d 61 c0
       -5.142165 -0.31883016 -0.49288997 -3.517444
0001f0 97 d2 82 c0 4d bd 5d 3f 18 16 ae bf ea 19 ca bf
       -4.088207 0.86616975 -1.3600492 -1.5789158
000200 fc b8 fe bf c6 de 80 3b e8 ee 2d c0 78 4a 86 3f
       -1.9900203 0.0039328067 -2.7177067 1.0491476
000210 8e ac a8 bf 3b d6 4f be 72 74 25 c0 14 50 84 bf
       -1.317766 -0.20296566 -2.5852323 -1.0336938
000220 bb 47 b6 3e fb 72 20 3e 7a 5d 86 bf 5d e6 ce 3e
       0.356016 0.15668862 -1.0497277 0.40410128
000230 f8 74 0d c0 08 8e fc be a2 03 21 c0 c3 e1 ca be
       -2.2102642 -0.4932711 -2.5158467 -0.39625368
000240 5e 5c a1 bf 10 94 67 3e e0 2f 94 be b9 61 48 3f
       -1.2606313 0.22615075 -0.28942776 0.7827411
000250 61 b4 5f c0 83 61 5b 3e 92 45 18 c0 38 0d a0 bf
       -3.4953845 0.21423917 -2.3792462 -1.2504034
000260 b4 b0 fd bf 50 ff 9b 3e 57 1e e3 bf 0d 93 9c 3f
       -1.981955 0.30468225 -1.7743634 1.2232376
000270 70 32 0f c0 81 f8 5b 3f 11 c8 1d c0 ec 53 80 c0
       -2.2374535 0.8592606 -2.465336 -4.0102444
000280 14 4c 16 c0 ec 98 98 3e cd d3 ae 3f 79 0a 8b bd
       -2.3483934 0.2980417 1.3658386 -0.06789107
000290 91 ed b6 bf 62 8c d1 bf 9a d9 1a c0 f5 43 03 bf
       -1.429125 -1.6370966 -2.4195313 -0.5127557
0002a0 d8 3a d0 3f 30 7c 63 3e 65 f6 09 c0 21 81 d4 3e
       1.6267958 0.22215343 -2.1556637 0.41504768
0002b0 a8 dc 0b c0 a4 8a 3a 3f 46 12 2e c0 3a 62 35 c0
       -2.1853428 0.728678 -2.7198653 -2.8341203
0002c0 5e 7e 05 bc 4b fe 3d 3e d4 7e 26 c0 62 63 0b c0
       -0.008147804 0.18554036 -2.601491 -2.1779408
0002d0 23 bb c8 be 9a ab 4f c0 a1 b4 dd 3e 7f b2 bd be
       -0.39205274 -3.2448487 0.4330187 -0.37050244
0002e0 9e 48 24 bf e6 7f 2a be f5 65 4c bf c6 f6 58 c0
       -0.64173305 -0.16650352 -0.79843074 -3.3900619
0002f0 63 b9 24 3f 58 e6 a7 bd e2 52 01 c0 de 38 90 c0
       0.6434538 -0.081982315 -2.0206838 -4.506942
000300 84 77 c4 c0 d9 98 9a be f3 67 e7 3f 08 72 a7 be
       -6.1395893 -0.30194739 1.8078598 -0.32704186
000310 b8 05 83 c0 e3 83 ca 3e e5 3b 2d c0 38 e9 ee bf
       -4.094448 0.39553747 -2.7067807 -1.8664923
000320 cb 68 d2 c0 5f 9e 4a 3e 14 f8 ca 3f 97 95 0a 40
       -6.575292 0.19786976 1.5856957 2.1653802
000330 74 3e 2f c0 07 c8 d9 be 01 8c 83 c0 38 a6 98 3e
       -2.7381868 -0.4253542 -4.1108403 0.29814315
000340 ca 7c 0d c1 56 f8 0b 3e c5 0c 9c bf 43 a5 a6 3e
       -8.842966 0.13668951 -1.2191397 0.3254796
000350 3e 33 94 bf 43 2c d9 3e 50 1b 26 c0 3e 15 17 c0
       -1.1578138 0.42416582 -2.595417 -2.3606715
000360 8e 7c c3 bf ee 01 14 3e eb 7e 89 c0 05 bb 18 bd
       -1.5272386 0.14453861 -4.296743 -0.03728773
000370 07 b8 8a bd 93 05 99 bf 43 b9 0c c0 f0 ac 0b 3f
       -0.06773382 -1.1954826 -2.1988075 0.54560757
000380 c2 2b 0a bf 0a 4d ab be f1 60 b4 be c4 6e 2b c0
       -0.5397302 -0.33457214 -0.3523021 -2.6786356
000390 75 c8 4e 3f f3 ae 74 3e 8d d4 56 c0 09 44 6f c0
       0.80774623 0.23894863 -3.356723 -3.7385275
0003a0 2b 1e a6 c0 7e ef c5 3d bf 84 53 bf b9 7a 37 3f
       -5.1911826 0.0966482 -0.8262443 0.71671635
0003b0 85 38 47 3e 3a 8b 83 bf 6a 45 59 c0 6b b5 5d bf
       0.19455154 -1.0276864 -3.3948617 -0.86604947
0003c0 14 ae f0 c0 b9 1e 9a 3e 2b bb 93 c0 49 f1 0a 40
       -7.52125 0.30101565 -4.6165977 2.1709769
0003d0 dc 5e 4d c0 c2 7c 2f 3f 5e ed 23 c0 cb eb 86 3f
       -3.2089148 0.6854974 -2.5613627 1.0540708
0003e0 8c 8c d2 bf 19 2e b0 bc 9f 37 b0 3f 94 01 50 c0
       -1.6449142 -0.021506356 1.3766974 -3.2500963
0003f0 b5 96 eb bf 78 0e cf 3d 38 34 29 c0 9b 7a 9a bf
       -1.8405367 0.101101816 -2.6438122 -1.2068666

l3.bias f4 [58]
000000 6e 6a 74 c1 5a 9c 77 c1 2f 11 82 c1 e4 90 62 c1
       -15.275984 -15.475672 -16.25839 -14.160374
000010 1a 2d 82 c1 39 15 82 c1 a8 51 5e c1 a2 cc 7a c1
       -16.272022 -16.260363 -13.894936 -15.674959
000020 97 15 81 c1 37 53 83 c1 85 b8 89 c1 e7 1a 7a c1
       -16.135542 -16.415632 -17.215097 -15.631568
000030 9c d4 7e c1 8b e0 7e c1 3c d5 c2 3e 56 da 7c c1
       -15.926907 -15.92982 0.3805331 -15.803305
000040 42 96 75 c1 e5 cf 54 c1 2d 94 72 c1 d4 31 82 c1
       -15.349184 -13.3007555 -15.161176 -16.27433
000050 ed 91 78 c1 71 52 7d c1 e2 a7 c1 3e 47 cc 7d c1
       -15.535626 -15.832627 0.37823397 -15.862372
000060 be 62 85 c1 67 a6 81 c1 a2 8c 83 c1 b1 6b 7e c1
       -16.673214 -16.206251 -16.443668 -15.901292
000070 b8 e4 73 c1 3e 7d 85 c1 1a e5 86 c1 45 37 77 c1
       -15.24334 -16.686153 -16.861866 -15.450994
000080 c0 50 6c c1 24 a7 5c c1 9f 3d 78 c1 36 14 72 c1
       -14.769714 -13.790806 -15.515044 -15.129934
000090 19 3c 85 c1 b8 e8 5b c1 76 44 6a c1 72 86 7d c1
       -16.654345 -13.744316 -14.641714 -15.845324
0000a0 9b 84 67 c1 dc c5 75 c1 b9 aa 83 c1 11 c3 61 c1
       -14.469874 -15.3608055 -16.45836 -14.110124
0000b0 64 28 79 c1 9b ca 7b c1 34 1a 4f c1 ba 0a 76 c1
       -15.572361 -15.736964 -12.943897 -15.377619
0000c0 d7 28 74 c1 b5 68 65 c1 d8 b4 81 c1 56 3c 7e c1
       -15.259971 -14.338063 -16.213303 -15.88973
0000d0 c7 34 75 c1 3c aa 81 c1 fb 98 80 c1 5a 1c 60 c1
       -15.325385 -16.208122 -16.074697 -14.006922
0000e0 86 54 67 c1 8a cd 83 c1
       -14.458136 -16.47536
